{"class_name": "Functional", "config": {"name": "model_5", "layers": [{"class_name": "InputLayer", "config": {"batch_input_shape": [null, 533], "dtype": "float32", "sparse": false, "ragged": false, "name": "batsman_input"}, "name": "batsman_input", "inbound_nodes": []}, {"class_name": "InputLayer", "config": {"batch_input_shape": [null, 11], "dtype": "float32", "sparse": false, "ragged": false, "name": "position_input"}, "name": "position_input", "inbound_nodes": []}, {"class_name": "InputLayer", "config": {"batch_input_shape": [null, 89], "dtype": "float32", "sparse": false, "ragged": false, "name": "location_input"}, "name": "location_input", "inbound_nodes": []}, {"class_name": "InputLayer", "config": {"batch_input_shape": [null, 9], "dtype": "float32", "sparse": false, "ragged": false, "name": "opposition_input"}, "name": "opposition_input", "inbound_nodes": []}, {"class_name": "Dense", "config": {"name": "batsman_1", "trainable": true, "dtype": "float32", "units": 10, "activation": "relu", "use_bias": true, "kernel_initializer": {"class_name": "RandomNormal", "config": {"mean": 0.0, "stddev": 0.05, "seed": null}}, "bias_initializer": {"class_name": "Zeros", "config": {}}, "kernel_regularizer": {"class_name": "L2", "config": {"l2": 0.10000000149011612}}, "bias_regularizer": {"class_name": "L2", "config": {"l2": 0.009999999776482582}}, "activity_regularizer": null, "kernel_constraint": null, "bias_constraint": null}, "name": "batsman_1", "inbound_nodes": [[["batsman_input", 0, 0, {}]]]}, {"class_name": "Dense", "config": {"name": "pos_1", "trainable": true, "dtype": "float32", "units": 10, "activation": "relu", "use_bias": true, "kernel_initializer": {"class_name": "RandomNormal", "config": {"mean": 0.0, "stddev": 0.05, "seed": null}}, "bias_initializer": {"class_name": "Zeros", "config": {}}, "kernel_regularizer": {"class_name": "L2", "config": {"l2": 0.10000000149011612}}, "bias_regularizer": {"class_name": "L2", "config": {"l2": 0.009999999776482582}}, "activity_regularizer": null, "kernel_constraint": null, "bias_constraint": null}, "name": "pos_1", "inbound_nodes": [[["position_input", 0, 0, {}]]]}, {"class_name": "Dense", "config": {"name": "loc_1", "trainable": true, "dtype": "float32", "units": 10, "activation": "relu", "use_bias": true, "kernel_initializer": {"class_name": "RandomNormal", "config": {"mean": 0.0, "stddev": 0.05, "seed": null}}, "bias_initializer": {"class_name": "Zeros", "config": {}}, "kernel_regularizer": {"class_name": "L2", "config": {"l2": 0.10000000149011612}}, "bias_regularizer": {"class_name": "L2", "config": {"l2": 0.009999999776482582}}, "activity_regularizer": null, "kernel_constraint": null, "bias_constraint": null}, "name": "loc_1", "inbound_nodes": [[["location_input", 0, 0, {}]]]}, {"class_name": "Dense", "config": {"name": "opposition_1", "trainable": true, "dtype": "float32", "units": 10, "activation": "relu", "use_bias": true, "kernel_initializer": {"class_name": "RandomNormal", "config": {"mean": 0.0, "stddev": 0.05, "seed": null}}, "bias_initializer": {"class_name": "Zeros", "config": {}}, "kernel_regularizer": {"class_name": "L2", "config": {"l2": 0.10000000149011612}}, "bias_regularizer": {"class_name": "L2", "config": {"l2": 0.009999999776482582}}, "activity_regularizer": null, "kernel_constraint": null, "bias_constraint": null}, "name": "opposition_1", "inbound_nodes": [[["opposition_input", 0, 0, {}]]]}, {"class_name": "Dropout", "config": {"name": "dropout", "trainable": true, "dtype": "float32", "rate": 0.2, "noise_shape": null, "seed": null}, "name": "dropout", "inbound_nodes": [[["batsman_1", 0, 0, {}]]]}, {"class_name": "Dropout", "config": {"name": "dropout_1", "trainable": true, "dtype": "float32", "rate": 0.2, "noise_shape": null, "seed": null}, "name": "dropout_1", "inbound_nodes": [[["pos_1", 0, 0, {}]]]}, {"class_name": "Dropout", "config": {"name": "dropout_2", "trainable": true, "dtype": "float32", "rate": 0.2, "noise_shape": null, "seed": null}, "name": "dropout_2", "inbound_nodes": [[["loc_1", 0, 0, {}]]]}, {"class_name": "Dropout", "config": {"name": "dropout_3", "trainable": true, "dtype": "float32", "rate": 0.2, "noise_shape": null, "seed": null}, "name": "dropout_3", "inbound_nodes": [[["opposition_1", 0, 0, {}]]]}, {"class_name": "Concatenate", "config": {"name": "concatenate", "trainable": true, "dtype": "float32", "axis": -1}, "name": "concatenate", "inbound_nodes": [[["dropout", 0, 0, {}], ["dropout_1", 0, 0, {}], ["dropout_2", 0, 0, {}], ["dropout_3", 0, 0, {}]]]}, {"class_name": "Dropout", "config": {"name": "dropout_4", "trainable": true, "dtype": "float32", "rate": 0.2, "noise_shape": null, "seed": null}, "name": "dropout_4", "inbound_nodes": [[["concatenate", 0, 0, {}]]]}, {"class_name": "Dense", "config": {"name": "concat_2", "trainable": true, "dtype": "float32", "units": 10, "activation": "relu", "use_bias": true, "kernel_initializer": {"class_name": "RandomNormal", "config": {"mean": 0.0, "stddev": 0.05, "seed": null}}, "bias_initializer": {"class_name": "Zeros", "config": {}}, "kernel_regularizer": {"class_name": "L2", "config": {"l2": 0.009999999776482582}}, "bias_regularizer": {"class_name": "L2", "config": {"l2": 0.009999999776482582}}, "activity_regularizer": null, "kernel_constraint": null, "bias_constraint": null}, "name": "concat_2", "inbound_nodes": [[["dropout_4", 0, 0, {}]]]}, {"class_name": "Dense", "config": {"name": "final_score", "trainable": true, "dtype": "float32", "units": 1, "activation": "linear", "use_bias": true, "kernel_initializer": {"class_name": "RandomNormal", "config": {"mean": 0.0, "stddev": 0.05, "seed": null}}, "bias_initializer": {"class_name": "Zeros", "config": {}}, "kernel_regularizer": {"class_name": "L2", "config": {"l2": 0.009999999776482582}}, "bias_regularizer": {"class_name": "L2", "config": {"l2": 0.009999999776482582}}, "activity_regularizer": null, "kernel_constraint": null, "bias_constraint": null}, "name": "final_score", "inbound_nodes": [[["concat_2", 0, 0, {}]]]}], "input_layers": [["batsman_input", 0, 0], ["position_input", 0, 0], ["location_input", 0, 0], ["opposition_input", 0, 0]], "output_layers": [["final_score", 0, 0]]}, "keras_version": "2.4.0", "backend": "tensorflow"}